model/RNNPolicy0_200.model (torch_old, 28711 bytes, 8 tensors)

weight f4 [3, 1, 4, 4]
00000000: dff4 81be d80e 0dbe 8805 e6bd 67f7 c6bd
00000010: 852d f2bc 056f d53d 5366 9a3d 5ebb 973e
00000020: 5047 30bd 1cca 6f3e 2dfd f33d 041f 043e
00000030: 62b5 7dbe 1fa9 d0bd 3285 d83b c71f 23be
00000040: bde1 a4bb 9150 acba 433b ddbc fa7a 25bd
00000050: d232 05be 1c36 453c e1d3 78bd 2970 37be
00000060: aa5a a6bd 6148 013e 8290 943d 2066 833c
00000070: 195f be3c a639 39be e3a1 51be c51d c9bc
00000080: 55aa 573e a468 a1bd 31d5 963e 23c5 02bd
00000090: 52dd b8bd ca26 643e 0a94 943e d5d8 9d3e
000000a0: 835c 9bbe ccb7 1d3e bc07 f03c 220c 8f3d
000000b0: b542 293d d719 b2bd 9720 45be afcc 5c3e
-0.25382134 -0.13775194 -0.11231524 -0.09715157 -0.029562721 0.10421566 0.07539048 0.29635137
-0.04303676 0.23416942 0.11913524 0.12902457 -0.24776223 -0.10188507 0.006607675 -0.15930091
-0.005031793 -0.0013146569 -0.027005797 -0.040400483 -0.13007668 0.012036826 -0.06074894 -0.1791388
-0.081227615 0.12625267 0.07254125 0.016039908 0.023238705 -0.18088397 -0.20471911 -0.024550328
0.2106107 -0.07881287 0.29459527 -0.031926285 -0.090265885 0.22280422 0.29019195 0.30829492
-0.30344018 0.15402144 0.029300563 0.06984736 0.041323382 -0.08696335 -0.19250713 0.21562456

bias f4 [3]
00000000: 190a c1bd 2a71 0bbc 942f b0bc
-0.09425754 -0.008510867 -0.021507062

weight f4 [9, 3, 4, 4]
00000000: 093d 123d 7c98 a33d 50f1 74bd 3f3d 483d
00000010: 2aef 8d3d 0676 f2bc f138 8b3d e384 90bd
00000020: dc3b 45ba d559 e9bd 3b06 5bbd 82ab 0abd
00000030: 9899 01be d3cb 83bb 9c19 07be a3e3 1b3d
00000040: 28da 0cbc 6368 75bd f782 c4bb df15 8ebd
00000050: 05f6 0a3b 91d6 2dbd a506 05bd 9241 933b
00000060: c1ec c6bd 66c3 ec3b 6c34 b5bb cfa6 64bd
00000070: d16d 0abb 332b bebd 4c3f c0bd ca69 263c
00000080: 44ac 17bd 7386 d13d 1536 ba3d 0d60 eebd
00000090: 4106 0abe 9930 e0bd 1866 8a3b e331 083d
000000a0: de68 42bc 3bbf 803c b2f3 bcba 3c70 de3d
000000b0: 2052 17bc 6997 fdbd e075 503d 046a 0c3e
000000c0: 54b0 653d b4e0 813d 9fe8 fabd aadc e53d
000000d0: 27cd 29bc db16 c4bc af7e d23c 2dc7 f73d
000000e0: af4c 283c 4937 5dbc 10a7 92bc 5d73 32bd
000000f0: 2cbb c6bd c0cb f43c aaa9 05be c3af 33be
00000100: efc7 c63c d079 d73d cfc7 fbbc 44ad b33c
00000110: 3031 81bd 8a78 253d a145 aebc 88be e9bd
00000120: 50ec d73d bf7b 58bd 07d0 333b 7877 99bd
00000130: a258 113d 365c 8f3d dcc8 2ebc 2ac5 b33d
00000140: 2e37 dab9 47f9 313d d4be 1b3d cb83 8dbd
00000150: 8427 173e 960a 373c 1335 22bd 5333 3c3e
00000160: 4d23 b4bc fce5 833d ad7f 173e a1f4 1b3d
00000170: 1bd7 bf3d e2f0 bfbd a268 20bd 4a15 a4bd
00000180: 53d0 06be cc8f ad3d 41c1 893d f609 113e
00000190: 1f01 413e 47ca d63d 8a33 0f3e 6d33 89bd
000001a0: b392 fd3d ca99 1c3e cfb5 b3bc 2249 3a3d
000001b0: 60e4 e7bd 605d 003e 3a46 293e d28f d4bc
000001c0: b392 103d f190 b4bd 76ed 963d 8596 60bd
000001d0: 20dd d5bd aa02 bd3d 09ba 433e c5c8 ca3d
000001e0: 9f9f c83d f54a 64bd c023 02bb ee6f 623d
000001f0: a877 0e3e f42f ac3c 327e 0fbd f0a4 fd3c
00000200: d9f9 42bd a556 0fbe e724 1cbe d3d0 b73d
00000210: fa2b ea3d b291 3b3e 33d4 ba3d 7233 0d3e
00000220: 27ca 4f3e 1d00 5e3e 13c1 d0bd b342 97bd
00000230: 55b7 d7bd e212 033e 01bb 043d 337c 85bc
00000240: f67f 863d 6f73 8f3d 48ce 4ebc 67a2 50bc
00000250: 9828 28bd 6a27 afbd 5924 15bc 7415 f63c
00000260: fcfe 31bd ce88 aa3d eefb 4b3d bbdf 31bd
00000270: c4c7 c03d c938 b03d bf15 983c 657a c5bd
00000280: b712 b13d 1751 d93d dcb2 9c3d ab40 903d
00000290: e6e4 fe3d 026a 19bc 0e06 4ebd 91ca 97bd
000002a0: 548d 623d 85ba 823d 4365 513b e2e5 983b
000002b0: 4319 e03d 5d40 95bc 8d8e b63d b506 b93c
000002c0: 938c 2bbd cb97 113d dea8 ecbd a39a d33d
000002d0: f396 11bd be1d 00be 4735 f53d 49f4 a0ba
000002e0: f6e5 d3bd e533 78bd e831 a93d a722 313d
000002f0: 6b1d 5abd 0557 1a3d 7452 89bd d77f 113e
00000300: 7eeb 37bd c414 babd a7c1 703d 668d b53d
00000310: 672d f5bd 2e6f 00bd 6364 e93d 496f 0abe
00000320: 37bf 3ebd 43d7 2d3d bfeb 293e 43b9 383c
00000330: 111c d33d b14f ac3d 9e17 f13c 79c5 e43c
00000340: 2533 3d3c 54ff 293e 7eed ccbd a4a0 403c
00000350: f5b9 a6bc 1208 d23d cd4a 0c3e 83b7 8e3d
00000360: b555 923d 83cf 5abd cb57 5dbd 34d1 aebd
00000370: bd79 d4bd ab73 3e3d 81f8 a63b 6f64 86bd
00000380: 2fa7 c0bd 8412 0b3e 2aca a7bc ee01 8f3c
00000390: 3d21 71bd 72c8 ec3d b07d f63d b2b3 b83d
000003a0: d205 eebd b6b3 90bd 0dc6 1f3e 1d82 52bd
000003b0: ead4 32bd 6d52 4fbd 4964 943d c6ff f73d
000003c0: 96d4 3c3d 5bd6 c33d 81f5 bc3c 16a7 31bd
000003d0: 6fe2 dfbd 538b c7bc 4771 0abd 071a f83d
000003e0: 7876 e4bc a6b1 b2bd 53e2 14be 07ad e23d
000003f0: 505b c03b 23eb 883d 42b2 6f3d 7513 9bbb
0.03570274 0.079880685 -0.059800446 0.048886534 0.069303825 -0.029597294 0.0679797 -0.07056596
-0.00075238734 -0.11394087 -0.05347274 -0.03385497 -0.12656248 -0.0040221005 -0.13193363 0.03805889
-0.008596934 -0.059914004 -0.0059970575 -0.06937765 0.0021203768 -0.042440955 -0.03247704 0.0044939006
-0.09713126 0.0072254417 -0.005529931 -0.055823144 -0.0021122585 -0.09285583 -0.09387073 0.010157058
-0.03702952 0.10230722 0.090923466 -0.11639414 -0.13478948 -0.10946769 0.0042235963 0.0332507
-0.011865823 0.015716186 -0.0014415889 0.10861251 -0.009235889 -0.12382395 0.050893664 0.13712317
0.056076363 0.06341687 -0.122514 0.11223729 -0.010363854 -0.02393668 0.025695173 0.12098537
0.010272189 -0.013501951 -0.017901927 -0.04356705 -0.09703669 0.029882312 -0.13053003 -0.17547517
0.024265258 0.10521281 -0.030734925 0.021933205 -0.0630821 0.040398158 -0.021273436 -0.11413294
0.1054312 -0.05285239 0.0027437226 -0.0749349 0.035484917 0.0700001 -0.010668006 0.087778404
-0.00041621312 0.04345062 0.038023785 -0.06909903 0.14761168 0.0111719575 -0.039601397 0.18378954
-0.021989489 0.064403504 0.14794798 0.038075093 0.093672 -0.093721166 -0.039162286 -0.08011873
-0.13165407 0.08474693 0.067263134 0.14163956 0.18848084 0.104878 0.13984504 -0.06699262
0.12381496 0.15293041 -0.021937279 0.0454799 -0.11322856 0.1253562 0.16530696 -0.025947485
0.035296153 -0.08816708 0.07369511 -0.054831047 -0.10442567 0.09229024 0.19113936 0.09901575
0.0979607 -0.055735547 -0.0019857734 0.055282526 0.13912833 0.02101896 -0.03503246 0.030962437
-0.047601555 -0.13997896 -0.15248452 0.08975377 0.11434169 0.18317297 0.09122505 0.13789156
0.20291959 0.2167973 -0.10193076 -0.07385769 -0.10533015 0.12800172 0.032404903 -0.016294574
0.06567375 0.07004439 -0.0126224235 -0.012734032 -0.04105434 -0.085524395 -0.009102904 0.030039527
-0.043456063 0.08326875 0.049800806 -0.043426257 0.09413102 0.08604581 0.018565057 -0.096424855
0.08646148 0.1061117 0.07651302 0.070435844 0.12446003 -0.009363653 -0.050298743 -0.07411683
0.055310562 0.06383232 0.0031951226 0.004666076 0.10942318 -0.018219167 0.08913908 0.022586206
-0.04188211 0.03554515 -0.11555646 0.10332229 -0.035544347 -0.12511346 0.119730525 -0.0012279834
-0.10346596 -0.060596365 0.08261472 0.043245938 -0.05325071 0.037680645 -0.0670518 0.14208923
-0.044902317 -0.09085992 0.05877843 0.0886486 -0.119715504 -0.03135603 0.113961 -0.13519014
-0.046569075 0.042441618 0.16593836 0.011274639 0.103080876 0.084136374 0.029430207 0.027926194
0.011547838 0.16601306 -0.100062355 0.01175705 -0.020352343 0.102554455 0.13700409 0.06968596
0.071452536 -0.053420555 -0.054038804 -0.08535996 -0.10374782 0.04649703 0.005095542 -0.06562125
-0.09406888 0.13581282 -0.020482142 0.017456975 -0.05886959 0.115616694 0.12035692 0.09018649
-0.11622204 -0.07065527 0.15602894 -0.051393617 -0.043660082 -0.050615717 0.072456904 0.12109332
0.046101175 0.095623694 0.023066284 -0.043372236 -0.10931861 -0.024358427 -0.033799436 0.12114339
-0.027888522 -0.0872529 -0.14539461 0.110681586 0.0058702603 0.06685474 0.05851961 -0.004732544

bias f4 [9]
00000000: 7277 58b8 ba79 1cbb 0e72 c2bc a8fd 123d
00000010: 777e 9d3c 7949 d83c 781d 893d cb45 093e
00000020: 83ce ddbd
-5.1609655e-05 -0.0023876266 -0.023736026 0.035886437 0.019225342 0.026402222 0.06695074 0.1340553
-0.108304046

weight f4 [9, 9, 4, 4]
00000000: fcbf 5bbd 1fc3 d3ba d8aa 923c 73e9 d0bc
00000010: 38a2 9ebc bfff 673d bfed 9bbd 1d89 f5bc
00000020: dd82 293c fe5b b0bc 6294 863d 8e2e a33a
00000030: d4c8 c8bb 10e1 7cbd 081b 80bd 92f2 f1bc
00000040: e88a 743d 50c0 abbd 3e50 1b3d 5c20 92bc
00000050: 9f0d 1f3d bd43 f0bd 4d02 ae3c cb29 11bd
00000060: 137f f73d 4063 833d 374c 963c 37f6 d33c
00000070: e237 873d 5b2b f73d ebca 9a3d d5eb 8ebc
00000080: b170 56ba dd35 c0bd 4723 3b3d df8f d0bd
00000090: 4875 633d 351d 02bd 9a5a c2bd 8835 c3bd
000000a0: dd2d eb3c 2c78 5f3b 1baa 513b 9118 4abd
000000b0: f2b1 343d bc06 d33d ed9f 24bd ac97 c5bd
000000c0: 7773 7c3d 2bec ba3d 6d3e cd3b 0bd6 f8bd
000000d0: dfa9 31bc 504d a6b9 6bfd 96bc cadd 09bb
000000e0: 350c b43d 7864 2b3d 7aec 1c3d 44f2 a13c
000000f0: 3d05 323d 6b25 053c bc0e a4bd fc06 833c
00000100: 9c4a d3bd 704b 10bd 7a8c a7bd eb63 2aba
00000110: 339b 76bd 2990 3bbd 3b22 043d cf5b 4c3d
00000120: 8f9d 56bd 12ae 163d 61f0 22bd 4962 ebbd
00000130: 0bc1 6cbd b9e5 953d 20c8 20bd 4554 133d
00000140: 7c70 3d3d 3f42 a23c 5260 7cbd 39d6 36bd
00000150: e6af df3c 4e63 e7bd fc39 cd3b 8a9b 363c
00000160: 75e7 cc3c 7dbb 593d e48d 06bd 8e65 1cbd
00000170: 5ab2 163d b74a f9bb 7ca3 9c3d 40b1 f4bb
00000180: 3fd7 eabc 3827 15bd d022 e7bd b003 c2bd
00000190: 210d cbbd aeb1 26be 2974 a73d fdd2 01bd
000001a0: f44d dd3d ce28 7339 7275 3bbd 12b8 ddbd
000001b0: e8b5 013c 7870 f23c 8578 683d 66a4 403d
000001c0: fc3d 2ebd e9ca 413c a86f cfbd ed80 b9bd
000001d0: 342d 863d 27df 0dbd f4d8 2bbd d355 273d
000001e0: d5b8 6f3d 45d7 4f3d 47c5 b1bd f055 ad3c
000001f0: 6b48 793d cf11 823d deed b8bc ec98 90bc
00000200: 99f3 99bd 5937 1ebd 0559 d23c f1c0 6cbd
00000210: 340d 8c3d 2fc7 843d 05eb 883d 585b 97bd
00000220: 8c92 103d 1f8d 4abd beec 93bd a140 71bd
00000230: 5a6b 81bd 3200 dd3d 84b2 e53c 82b0 373d
00000240: eef0 523d 83aa 713d 984f a43c 71c4 e7bd
00000250: b797 aebb 4c7d d63d 6696 ec3d 2830 0bbc
00000260: 41c5 fb3b 8edc 76bd cea9 0fbd 1647 26ba
00000270: 690b c6bc c529 8cbc 2b71 433d 6fbd 62bd
00000280: 9e8b 13bd ccbe 30bd 3e98 753d fbbd e3bc
00000290: d49d 24bd 4247 81bc bac5 a13d 3a9a cabb
000002a0: f6b5 66bd 38e6 d83c 25f0 983c d706 d4bc
000002b0: b8ee 013d 6269 f5bc e01f 89bd 8e4c c03c
000002c0: d025 0b3d fcab b13d b544 683d e262 003d
000002d0: 49ab ddbc 52d5 d13c 8933 ab3d deca 033e
000002e0: 3843 ee3c 57f6 9e3d b1e7 f8bc 99f5 8a3d
000002f0: 46a1 153e 1b70 0e3c 074f 843d 1bf6 bfbc
00000300: 3497 e33d cbf0 373c 8f28 033e be5f 033d
00000310: 0690 07bd 7610 d03c 8ae1 023e 1c3a 1ebd
00000320: 1d2e 1b3d e32c 4d3d e8c6 5a3d 2f8c bebd
00000330: dc1f 323d a8ba b63d efa0 73bd 959b b33c
00000340: 20cb 8b3a 0c90 e7bb de39 a3bc 2047 243c
00000350: c2da 1fbc 7460 1e3e 41de 10bd 08de b03c
00000360: 6faa 5a3d a2dc 19bd 3f8f c63d 5c30 483d
00000370: 9cb2 2abd aa08 4a3d ce61 c1bc bb85 0fbc
00000380: 96de 863d 8262 75bc 7ea3 c5bb 3f48 13bd
00000390: 9242 703d bd1c f3bc 3903 703d 5ae2 82bd
000003a0: 9dee 80bd 6ebe 813c 8d11 12bd 6868 ff3b
000003b0: 9583 fd3b f009 323d 35ce abbc 446f b8bb
000003c0: 0997 5b3d c89c 28bd d984 7ebd 35a5 6abc
000003d0: df7a 093c 5d42 79bc 839c c3bc fe52 bc3c
000003e0: 7a2e ec3b b8fd 8fbc d44f 053e ff9d 013e
000003f0: 09eb 783d 9d98 853c e978 043e bf58 2b3d
-0.053649887 -0.0016156173 0.01790373 -0.025501942 -0.019364461 0.056640383 -0.07613706 -0.029972607
0.010346142 -0.02152824 0.065712705 0.0012449787 -0.006127456 -0.061738074 -0.06255156 -0.029534612
0.059702784 -0.0838629 0.03791832 -0.017837696 0.03883135 -0.1173167 0.021241331 -0.035440248
0.12084784 0.06415415 0.018346889 0.02587424 0.06602456 0.12068816 0.07558235 -0.017446438
-0.00081802445 -0.093852736 0.04568794 -0.10183691 0.05553177 -0.031766135 -0.09489937 -0.09531695
0.028708393 0.0034098728 0.003199226 -0.049339835 0.044115014 0.10304019 -0.04019158 -0.0964807
0.061633553 0.09127077 0.0062635452 -0.121502005 -0.010843723 -0.0003171959 -0.018431386 -0.0021036738
0.08791391 0.04184386 0.03831146 0.019768842 0.043462027 0.008126597 -0.08010623 0.015994541
-0.10316965 -0.035228193 -0.08181091 -0.0006499874 -0.060206603 -0.04579178 0.032259207 0.049892243
-0.052396353 0.0367871 -0.039780024 -0.11493356 -0.057801288 0.07319207 -0.039253354 0.035969038
0.04624985 0.01980698 -0.061615296 -0.044637892 0.027305555 -0.11298238 0.006263016 0.011145482
0.025012711 0.05315732 -0.03285016 -0.038182788 0.036791183 -0.0076077837 0.0764837 -0.007467419
-0.02866709 -0.036414355 -0.11285937 -0.094733596 -0.099146135 -0.16278717 0.08176453 -0.031695355
0.10805884 0.00023189487 -0.0457663 -0.10826124 0.007916905 0.029594645 0.05675556 0.047031783
-0.04253958 0.011828163 -0.101287186 -0.09057794 0.065515906 -0.034636643 -0.04195495 0.040853333
0.05852588 0.050742406 -0.08680206 0.021159142 0.06086008 0.06351053 -0.022574361 -0.017651044
-0.07517166 -0.038627002 0.025677213 -0.05780119 0.06838456 0.06483304 0.066854514 -0.07390469
0.035296008 -0.04945099 -0.07222889 -0.058899526 -0.06319304 0.10791053 0.028039224 0.044846065
0.0514993 0.059000503 0.020057485 -0.11316765 -0.0053281444 0.10473117 0.11552124 -0.008495368
0.0076834266 -0.06026893 -0.035074048 -0.000634299 -0.024175363 -0.017109761 0.047715347 -0.05535644
-0.03602182 -0.043150708 0.059959643 -0.02780055 -0.04018958 -0.015781049 0.078990415 -0.006182936
-0.056325875 0.026476964 0.018669197 -0.025882168 0.0317218 -0.029957477 -0.06695533 0.023474004
0.033971608 0.086753815 0.05670615 0.031344302 -0.027059214 0.025614414 0.08359439 0.12870356
0.029084787 0.07761829 -0.030383917 0.06785125 0.14612302 0.00869372 0.06460386 -0.023432782
0.11112824 0.011226843 0.1280844 0.03207373 -0.033096336 0.025398474 0.12781349 -0.038629636
0.037885774 0.050091635 0.053412348 -0.09304082 0.043487415 0.089223206 -0.05947965 0.021924773
0.0010665394 -0.0070667323 -0.019925054 0.010026723 -0.009756746 0.15466481 -0.035368208 0.021590248
0.053385194 -0.037563927 0.09695291 0.048874244 -0.04167424 0.04932467 -0.023606207 -0.008759911
0.06585424 -0.014977099 -0.0060314527 -0.03595757 0.058657236 -0.02967679 0.058596823 -0.063908294
-0.06295512 0.015837874 -0.03566127 0.0077944286 0.007736633 0.04346651 -0.02097235 -0.0056284983
0.053610835 -0.041165143 -0.062138412 -0.014321615 0.008391111 -0.015213576 -0.023878342 0.022988793
0.007207689 -0.017577037 0.13018733 0.12657927 0.060771022 0.016308123 0.12936749 0.04183268

bias f4 [9]
00000000: 22d2 2f3b d23c 01bd a0da 633d 303c 203b
00000010: fb73 92bd d0b3 21bd 2e64 6c3b aa0e d4bc
00000020: 2b9e a0bd
0.002682813 -0.031552143 0.05562842 0.0024449937 -0.07151028 -0.039478123 0.0036070454 -0.025885899
-0.07842668

weight f4 [2, 900]
00000000: 306c d33b ccdb e83c 1003 7f3c 87d4 85bb
00000010: 834c 533a 8eea 013d 6c3b 78ba d710 aebc
00000020: b14b 753c 17cd 9d3c 00d9 0e3c 71bd 4fbd
00000030: 54f8 b4ba 22ae 283d 1899 c83b c631 1a3d
00000040: 5ec9 b53b 9c6e ccbc 7fa0 2dbd 2fb2 3abd
00000050: 8874 a43c e9a9 563d f2b6 b9bc 7422 a2bd
00000060: 5e39 a03b d0ec 093d e26e 963d 534c 353c
00000070: f88e 21bd f107 e1bc d93d fd3b e273 163d
00000080: ccb3 9bbc df5b 68bd e79b 6ebd be7a 1b3d
00000090: c83c b33c 3905 babc 0baf cbbc 127e 423b
000000a0: 871a b13b f336 d1bc 88be 9c3c a627 90bb
000000b0: ae6c c8bc 0860 1ebd 2340 4e3d 7e9e 49bd
000000c0: 512a f7bc 65d8 073d 9e30 fbbc 6a71 83bd
000000d0: 5fb6 53bd 5ff2 3abb 04e7 6e3d 2668 64bc
000000e0: 7684 93bc c7cb 04bd 9b76 4a3d bd3d 76bc
000000f0: bcaf 06bc 237a 80bd 7a24 8abd eb1b 1dbd
00000100: 7e54 06bc 36d7 a5bd 4afa 2fbc 164f 42bd
00000110: 9479 18bc 2567 0e3d 8a8d ad3c 7ef0 473d
00000120: e1b4 15bd 91ab fbbb 6b70 97bd 30e5 1cbd
00000130: 3b5d 0d3c a622 aabc b65a 453d 044b 973c
00000140: 6bb6 e33c bcb9 58bc a683 bb3c 9dc2 aa3b
00000150: 61be c6bb f68e 7bbc b667 28bd c995 d7bd
00000160: 40f0 26bc ce21 a2bb 3b95 123d a125 913a
00000170: 1eb3 e0bb 671e 473d 10ac b03c ffc7 9f3c
00000180: aedd 62bc 4b51 babc 6706 c9ba 56e2 08bc
00000190: 0365 693c 1ed3 bf3c f67d 173d 9fea 123d
000001a0: 9da2 1b3d 63fc 873d 97c5 bfbd 31b2 7f3c
000001b0: fb7b 27bd 5045 4fbb 1e24 433d cb77 2f3d
000001c0: 1fc2 28bd ba46 0a3d 3290 363d 08a7 12bd
000001d0: c88c 243d b671 843c bed6 783c 3202 babc
000001e0: 8f5a 27bc 5ed7 033d bce8 58bc 3d80 9dbd
000001f0: 21d2 10bc 951e 093e 329d 533d 90c8 7fbb
00000200: ae1e 82bc 335b 0fbc 456c c2bc 95d0 e03c
00000210: 51ae 34bd cb0e 24bd f3ea 8d3b 8969 0e3d
00000220: 1c63 e63d 9a13 8cbd adfe 2dbd e704 b23c
00000230: 3d2e e7bc 1458 a6bc 0cd0 af3c ecf3 cbbc
00000240: 47b0 a7bc 33c9 413d ecbe 07bd 572f d2bb
00000250: 269d 7dbc 269b 823c 0406 2bbd f62e 3dbc
00000260: 084d 0b3d b6c3 423d 5be6 7ebd db46 1bbd
00000270: beb3 14bd 61d7 23bd 4fdd ff3c f1db c23b
00000280: 2549 5ebd d4ea 93bd c787 d0bc e87b 5dbd
00000290: a5c7 81bd f3ba 30bd d443 14bd 3ea6 d63c
000002a0: d7b8 973c 7b6f 44bc 07e4 163d 5ba0 89bc
000002b0: db97 5abb 49bf 90bd f6ed 99bd 5847 dfbc
000002c0: 742b 6d3c e132 193d 9258 a5bc 62c7 4d3d
000002d0: aae3 b83b 9e27 cb3c 82c0 5fbc 1218 92bd
000002e0: 32bf 1b3d 8651 10bd 7a0f febb 8985 2dbd
000002f0: 8371 a23c baf3 ad3c bc76 193c 727a 1cbd
00000300: 72e3 823b f58e 863c b192 b83c a87c a2bc
00000310: dc8a 8bbd 5f72 e5bd 4fd6 23bd c0a1 e9bc
00000320: 78b4 8f3c bd74 b93b e26d 323d 02fb d1bc
00000330: 29c1 603d 0d44 2fbb 3d95 96bd 36d9 05bc
00000340: 85e7 743a a3b6 8a3c 4bf6 803b cd43 9e3d
00000350: fd01 28bd d38e 1dbd c26f a9bd a3b2 f13c
00000360: 428f 7a3c 8306 27bd 25bc 12bd 7b4d 67bc
00000370: 4f55 39bd efda 42bd 4adf 90bc 69b7 6dbc
00000380: 8842 853d 3de4 573d 64f9 a73d f384 343d
00000390: 9603 6cbd 616b 223c 89d5 aebc 92fe 703d
000003a0: 42af 31bd 1380 40bd a105 51bd f788 ad3d
000003b0: 6eb2 92bd c363 8dbd fe43 a33b b39a c83b
000003c0: 472b 183d 2792 733c 56cc bbbc 611c 0cbc
000003d0: bbad 673d 8531 aabd 289b 8fbd dd55 e7bb
000003e0: 9fb3 7e3c 25b2 32bd 49b4 47bd 860a e5bb
000003f0: 6459 c93c acc9 72bd 31b2 a53a aa66 95bd
0.006452106 0.02842512 0.015564695 -0.004084173 0.00080604124 0.03171783 -0.0009469304 -0.021248264
0.0149716595 0.019262834 0.008718729 -0.050717775 -0.0013806918 0.04118169 0.006121766 0.037645124
0.0055476865 -0.024955086 -0.04238939 -0.045580085 0.020075098 0.052408133 -0.022670243 -0.07916728
0.004889651 0.033673108 0.07345368 0.01106556 -0.039442986 -0.027469607 0.00772832 0.03673161
-0.019006632 -0.05672824 -0.05825415 0.037958853 0.021879569 -0.022707568 -0.02486374 0.0029677195
0.0054047736 -0.025538897 0.019133821 -0.0043992577 -0.024465885 -0.0386658 0.050354134 -0.049223416
-0.030171545 0.033165354 -0.03066283 -0.064181164 -0.051687595 -0.0028525812 0.058325782 -0.013940847
-0.018007498 -0.0324209 0.049429517 -0.015029368 -0.008220609 -0.06273296 -0.067452386 -0.038356703
-0.008198855 -0.08097689 -0.010740826 -0.047438703 -0.00930633 0.034766335 0.021185655 0.048813336
-0.036549453 -0.0076803644 -0.07394489 -0.038304508 0.008628185 -0.020768475 0.04818221 0.018468387
0.027796945 -0.013227876 0.022889923 0.005211188 -0.0060651754 -0.015353909 -0.04111453 -0.10526616
-0.010189116 -0.0049478775 0.03578685 0.0011073836 -0.00685729 0.04861298 0.02156642 0.019504545
-0.013846798 -0.022743842 -0.0015336991 -0.008354744 0.0142452745 0.023416098 0.03698536 0.035868283
0.037996877 0.06639936 -0.09363859 0.015606449 -0.04088972 -0.0031627007 0.047641866 0.042838853
-0.041200753 0.033758856 0.04457111 -0.035803825 0.040173322 0.016167503 0.015187917 -0.022706125
-0.010214462 0.032187812 -0.013239082 -0.07690475 -0.008839161 0.13390572 0.051663585 -0.0039029457
-0.01588377 -0.008749771 -0.023733268 0.02744321 -0.044111554 -0.04005317 0.0043309866 0.034768615
0.11249372 -0.06839676 -0.042479206 0.021730853 -0.02822029 -0.02030567 0.02146151 -0.024896584
-0.020469798 0.04731102 -0.03314106 -0.0064143348 -0.015479362 0.015943121 -0.041753784 -0.011546841
0.03400901 0.047549926 -0.062231403 -0.03790937 -0.036304228 -0.040000323 0.031233458 0.005946629
-0.054268975 -0.07222524 -0.025455369 -0.054073244 -0.06336907 -0.04314704 -0.0361975 0.026202317
0.018520756 -0.01198947 0.036838558 -0.016800096 -0.0033354673 -0.07067735 -0.075160906 -0.027255699
0.014475692 0.037402038 -0.020183835 0.050238974 0.005642374 0.024799164 -0.013656737 -0.07133497
0.038024135 -0.035233997 -0.00775331 -0.042363677 0.019829517 0.021234382 0.009366687 -0.03820271
0.0039943988 0.01642559 0.022530885 -0.019834831 -0.06813595 -0.11203455 -0.039999302 -0.028519511
0.017542109 0.0056596682 0.043561824 -0.025632385 0.054871712 -0.0026743442 -0.07352684 -0.008169463
0.00093423604 0.016932791 0.0039356104 0.07727776 -0.04101752 -0.038466286 -0.08273269 0.029504126
0.015292944 -0.040777694 -0.03582396 -0.014117594 -0.045247372 -0.047572073 -0.017684598 -0.01450906
0.065068305 0.0527079 0.08201864 0.044072103 -0.057620607 0.009913296 -0.021342056 0.058836527
-0.04338003 -0.04699714 -0.05103076 0.084733896 -0.07162939 -0.06903794 0.0049824705 0.006121957
0.037150647 0.014866388 -0.022924583 -0.008551688 0.056562167 -0.08310226 -0.070120156 -0.0070597962
0.015545755 -0.043626923 -0.048755918 -0.00698978 0.024578758 -0.05927436 0.0012641606 -0.07294972

bias f4 [2]
00000000: eeee b53a 2d90 1a3d
0.0013880411 0.037735153
